Namespace(batch_size=128, debug=False, gpu=0, lr=0.001, nepochs=200, save='log/')
ARSC_NET(
  (conv1): Conv2d(3, 64, kernel_size=(7, 7), stride=(1, 1), padding=(3, 3), bias=False)
  (bn1): BatchNorm2d(64, eps=1e-05, momentum=0.1, affine=True, track_running_stats=True)
  (relu1): ReLU()
  (maxpool1): AdaptiveMaxPool2d(output_size=(64, 64))
  (resattention1): Residual_attention(
    (conv1): Conv2d(64, 32, kernel_size=(3, 3), stride=(1, 1), padding=(1, 1), bias=False)
    (conv2): Conv2d(32, 128, kernel_size=(3, 3), stride=(1, 1), padding=(1, 1), bias=False)
    (conv3): Conv2d(64, 128, kernel_size=(1, 1), stride=(1, 1), bias=False)
    (relu): ReLU()
    (bn): BatchNorm2d(128, eps=1e-05, momentum=0.1, affine=True, track_running_stats=True)
    (attention): Channel_Spatial_Attention(
      (channel): ChannelAttention(
        (avg_pool): AdaptiveAvgPool2d(output_size=1)
        (max_pool): AdaptiveMaxPool2d(output_size=1)
        (fc): Sequential(
          (0): Conv2d(128, 64, kernel_size=(1, 1), stride=(1, 1), bias=False)
          (1): ReLU()
          (2): Conv2d(64, 128, kernel_size=(1, 1), stride=(1, 1), bias=False)
        )
        (sigmoid): Sigmoid()
      )
      (Spatial): SpatialAttention(
        (conv1): Conv2d(2, 1, kernel_size=(7, 7), stride=(1, 1), padding=(3, 3), bias=False)
        (sigmoid): Sigmoid()
      )
    )
  )
  (attention): Channel_Spatial_Attention(
    (channel): ChannelAttention(
      (avg_pool): AdaptiveAvgPool2d(output_size=1)
      (max_pool): AdaptiveMaxPool2d(output_size=1)
      (fc): Sequential(
        (0): Conv2d(128, 64, kernel_size=(1, 1), stride=(1, 1), bias=False)
        (1): ReLU()
        (2): Conv2d(64, 128, kernel_size=(1, 1), stride=(1, 1), bias=False)
      )
      (sigmoid): Sigmoid()
    )
    (Spatial): SpatialAttention(
      (conv1): Conv2d(2, 1, kernel_size=(7, 7), stride=(1, 1), padding=(3, 3), bias=False)
      (sigmoid): Sigmoid()
    )
  )
  (resattention2): Residual_attention(
    (conv1): Conv2d(128, 64, kernel_size=(3, 3), stride=(1, 1), padding=(1, 1), bias=False)
    (conv2): Conv2d(64, 64, kernel_size=(3, 3), stride=(1, 1), padding=(1, 1), bias=False)
    (conv3): Conv2d(128, 64, kernel_size=(1, 1), stride=(1, 1), bias=False)
    (relu): ReLU()
    (bn): BatchNorm2d(64, eps=1e-05, momentum=0.1, affine=True, track_running_stats=True)
    (attention): Channel_Spatial_Attention(
      (channel): ChannelAttention(
        (avg_pool): AdaptiveAvgPool2d(output_size=1)
        (max_pool): AdaptiveMaxPool2d(output_size=1)
        (fc): Sequential(
          (0): Conv2d(64, 32, kernel_size=(1, 1), stride=(1, 1), bias=False)
          (1): ReLU()
          (2): Conv2d(32, 64, kernel_size=(1, 1), stride=(1, 1), bias=False)
        )
        (sigmoid): Sigmoid()
      )
      (Spatial): SpatialAttention(
        (conv1): Conv2d(2, 1, kernel_size=(7, 7), stride=(1, 1), padding=(3, 3), bias=False)
        (sigmoid): Sigmoid()
      )
    )
  )
  (avepool): AdaptiveAvgPool2d(output_size=(1, 1))
  (flat): Flatten()
  (fc): Linear(in_features=64, out_features=10, bias=True)
)
Number of parameters: 230000
epoch:1
Train loss : 2.1371	Train Acc : 0.2423
epoch:2
Train loss : 1.9625	Train Acc : 0.3002
epoch:3
Train loss : 1.8559	Train Acc : 0.3299
epoch:4
Train loss : 1.7759	Train Acc : 0.3551
epoch:5
Train loss : 1.7099	Train Acc : 0.3726
Val loss : 1.6775	Val Acc : 0.3800
best accuracy is 0.3800
epoch:6
Train loss : 1.6786	Train Acc : 0.3717
…
